…
I0803 22:54:49.067916   149 net.cpp:323] The NetState phase (0) differed from the phase (1) specified by a rule in layer val-data
I0803 22:54:49.067935   149 net.cpp:323] The NetState phase (0) differed from the phase (1) specified by a rule in layer accuracy
I0803 22:54:49.068048   149 net.cpp:52] Initializing net from parameters:
state {
phase: TRAIN
}
layer {
name: "train-data"
type: "Data"
top: "data"
top: "label"
include {
phase: TRAIN
}
transform_param {
mirror: true
crop_size: 227
mean_file: "/opt/DIGITS/digits/jobs/20180803-224823-72cb/mean.binaryproto"
}
data_param {
source: "/opt/DIGITS/digits/jobs/20180803-224823-72cb/train_db"
batch_size: 128
backend: LMDB
}
}
layer {
name: "conv1"
type: "Convolution"
bottom: "data"
top: "conv1"
param {
lr_mult: 1
decay_mult: 1
}
param {
lr_mult: 2
decay_mult: 0
}
convolution_param {
num_output: 96
kernel_size: 11
stride: 4
weight_filler {
type: "gaussian"
std: 0.01
}
bias_filler {
type: "constant"
value: 0
}
}
}
layer {
name: "relu1"
type: "ReLU"
bottom: "conv1"
top: "conv1"
}
layer {
name: "norm1"
type: "LRN"
bottom: "conv1"
top: "norm1"
lrn_param {
local_size: 5
alpha: 0.0001
beta: 0.75
}
}
layer {
name: "pool1"
type: "Pooling"
bottom: "norm1"
top: "pool1"
pooling_param {
pool: MAX
kernel_size: 3
stride: 2
}
}
layer {
name: "conv2"
type: "Convolution"
bottom: "pool1"
top: "conv2"
param {
lr_mult: 1
decay_mult: 1
}
param {
lr_mult: 2
decay_mult: 0
}
convolution_param {
num_output: 256
pad: 2
kernel_size: 5
group: 2
weight_filler {
type: "gaussian"
std: 0.01
}
bias_filler {
type: "constant"
value: 0.1
}
}
}
layer {
name: "relu2"
type: "ReLU"
bottom: "conv2"
top: "conv2"
}
layer {
name: "norm2"
type: "LRN"
bottom: "conv2"
top: "norm2"
lrn_param {
local_size: 5
alpha: 0.0001
beta: 0.75
}
}
layer {
name: "pool2"
type: "Pooling"
bottom: "norm2"
top: "pool2"
pooling_param {
pool: MAX
kernel_size: 3
stride: 2
}
}
layer {
name: "conv3"
type: "Convolution"
bottom: "pool2"
top: "conv3"
param {
lr_mult: 1
decay_mult: 1
}
param {
lr_mult: 2
decay_mult: 0
}
convolution_param {
num_output: 384
pad: 1
kernel_size: 3
weight_filler {
type: "gaussian"
std: 0.01
}
bias_filler {
type: "constant"
value: 0
}
}
}
layer {
name: "relu3"
type: "ReLU"
bottom: "conv3"
top: "conv3"
}
layer {
name: "conv4"
type: "Convolution"
bottom: "conv3"
top: "conv4"
param {
lr_mult: 1
decay_mult: 1
}
param {
lr_mult: 2
decay_mult: 0
}
convolution_param {
num_output: 384
pad: 1
kernel_size: 3
group: 2
weight_filler {
type: "gaussian"
std: 0.01
}
bias_filler {
type: "constant"
value: 0.1
}
}
}
layer {
name: "relu4"
type: "ReLU"
bottom: "conv4"
top: "conv4"
}
layer {
name: "conv5"
type: "Convolution"
bottom: "conv4"
top: "conv5"
param {
lr_mult: 1
decay_mult: 1
}
param {
lr_mult: 2
decay_mult: 0
}
convolution_param {
num_output: 256
pad: 1
kernel_size: 3
group: 2
weight_filler {
type: "gaussian"
std: 0.01
}
bias_filler {
type: "constant"
value: 0.1
}
}
}
layer {
name: "relu5"
type: "ReLU"
bottom: "conv5"
top: "conv5"
}
layer {
name: "pool5"
type: "Pooling"
bottom: "conv5"
top: "pool5"
pooling_param {
pool: MAX
kernel_size: 3
stride: 2
}
}
layer {
name: "fc6"
type: "InnerProduct"
bottom: "pool5"
top: "fc6"
param {
lr_mult: 1
decay_mult: 1
}
param {
lr_mult: 2
decay_mult: 0
}
inner_product_param {
num_output: 4096
weight_filler {
type: "gaussian"
std: 0.005
}
bias_filler {
type: "constant"
value: 0.1
}
}
}
layer {
name: "relu6"
type: "ReLU"
bottom: "fc6"
top: "fc6"
}
layer {
name: "drop6"
type: "Dropout"
bottom: "fc6"
top: "fc6"
dropout_param {
dropout_ratio: 0.5
}
}
layer {
name: "fc7"
type: "InnerProduct"
bottom: "fc6"
top: "fc7"
param {
lr_mult: 1
decay_mult: 1
}
param {
lr_mult: 2
decay_mult: 0
}
inner_product_param {
num_output: 4096
weight_filler {
type: "gaussian"
std: 0.005
}
bias_filler {
type: "constant"
value: 0.1
}
}
}
layer {
name: "relu7"
type: "ReLU"
bottom: "fc7"
top: "fc7"
}
layer {
name: "drop7"
type: "Dropout"
bottom: "fc7"
top: "fc7"
dropout_param {
dropout_ratio: 0.5
}
}
layer {
name: "fc8"
type: "InnerProduct"
bottom: "fc7"
top: "fc8"
param {
lr_mult: 1
decay_mult: 1
}
param {
lr_mult: 2
decay_mult: 0
}
inner_product_param {
num_output: 4
weight_filler {
type: "gaussian"
std: 0.01
}
bias_filler {
type: "constant"
value: 0
}
}
}
layer {
name: "loss"
type: "SoftmaxWithLoss"
bottom: "fc8"
bottom: "label"
top: "loss"
}
I0803 22:54:49.068141   149 layer_factory.hpp:77] Creating layer train-data
I0803 22:54:49.068740   149 net.cpp:94] Creating Layer train-data
I0803 22:54:49.068773   149 net.cpp:409] train-data -> data
I0803 22:54:49.068828   149 net.cpp:409] train-data -> label
I0803 22:54:49.068846   149 data_transformer.cpp:25] Loading mean file from: /opt/DIGITS/digits/jobs/20180803-224823-72cb/mean.binaryproto
I0803 22:54:49.069882   152 db_lmdb.cpp:35] Opened lmdb /opt/DIGITS/digits/jobs/20180803-224823-72cb/train_db
I0803 22:54:49.077339   149 data_layer.cpp:78] ReshapePrefetch 128, 3, 227, 227
I0803 22:54:49.077441   149 data_layer.cpp:83] output data size: 128,3,227,227
I0803 22:54:49.238595   149 net.cpp:144] Setting up train-data
I0803 22:54:49.238699   149 net.cpp:151] Top shape: 128 3 227 227 (19787136)
I0803 22:54:49.238710   149 net.cpp:151] Top shape: 128 (128)
I0803 22:54:49.238718   149 net.cpp:159] Memory required for data: 79149056
I0803 22:54:49.238734   149 layer_factory.hpp:77] Creating layer conv1
I0803 22:54:49.238764   149 net.cpp:94] Creating Layer conv1
I0803 22:54:49.238775   149 net.cpp:435] conv1 <- data
I0803 22:54:49.238795   149 net.cpp:409] conv1 -> conv1
I0803 22:54:49.241206   149 net.cpp:144] Setting up conv1
I0803 22:54:49.241240   149 net.cpp:151] Top shape: 128 96 55 55 (37171200)
I0803 22:54:49.241248   149 net.cpp:159] Memory required for data: 227833856
I0803 22:54:49.241269   149 layer_factory.hpp:77] Creating layer relu1
I0803 22:54:49.241282   149 net.cpp:94] Creating Layer relu1
I0803 22:54:49.241291   149 net.cpp:435] relu1 <- conv1
I0803 22:54:49.241315   149 net.cpp:396] relu1 -> conv1 (in-place)
I0803 22:54:49.241355   149 net.cpp:144] Setting up relu1
I0803 22:54:49.241366   149 net.cpp:151] Top shape: 128 96 55 55 (37171200)
I0803 22:54:49.241389   149 net.cpp:159] Memory required for data: 376518656
I0803 22:54:49.241397   149 layer_factory.hpp:77] Creating layer norm1
I0803 22:54:49.241426   149 net.cpp:94] Creating Layer norm1
I0803 22:54:49.241434   149 net.cpp:435] norm1 <- conv1
I0803 22:54:49.241446   149 net.cpp:409] norm1 -> norm1
I0803 22:54:49.241582   149 net.cpp:144] Setting up norm1
I0803 22:54:49.241601   149 net.cpp:151] Top shape: 128 96 55 55 (37171200)
I0803 22:54:49.241609   149 net.cpp:159] Memory required for data: 525203456
I0803 22:54:49.241617   149 layer_factory.hpp:77] Creating layer pool1
I0803 22:54:49.241631   149 net.cpp:94] Creating Layer pool1
I0803 22:54:49.241639   149 net.cpp:435] pool1 <- norm1
I0803 22:54:49.241664   149 net.cpp:409] pool1 -> pool1
I0803 22:54:49.241708   149 net.cpp:144] Setting up pool1
I0803 22:54:49.241719   149 net.cpp:151] Top shape: 128 96 27 27 (8957952)
I0803 22:54:49.241726   149 net.cpp:159] Memory required for data: 561035264
I0803 22:54:49.241734   149 layer_factory.hpp:77] Creating layer conv2
I0803 22:54:49.241747   149 net.cpp:94] Creating Layer conv2
I0803 22:54:49.241755   149 net.cpp:435] conv2 <- pool1
I0803 22:54:49.241765   149 net.cpp:409] conv2 -> conv2
I0803 22:54:49.254451   149 net.cpp:144] Setting up conv2
I0803 22:54:49.254467   149 net.cpp:151] Top shape: 128 256 27 27 (23887872)
I0803 22:54:49.254477   149 net.cpp:159] Memory required for data: 656586752
I0803 22:54:49.254489   149 layer_factory.hpp:77] Creating layer relu2
I0803 22:54:49.254500   149 net.cpp:94] Creating Layer relu2
I0803 22:54:49.254509   149 net.cpp:435] relu2 <- conv2
I0803 22:54:49.254519   149 net.cpp:396] relu2 -> conv2 (in-place)
I0803 22:54:49.254532   149 net.cpp:144] Setting up relu2
I0803 22:54:49.254542   149 net.cpp:151] Top shape: 128 256 27 27 (23887872)
I0803 22:54:49.254549   149 net.cpp:159] Memory required for data: 752138240
I0803 22:54:49.254559   149 layer_factory.hpp:77] Creating layer norm2
I0803 22:54:49.254572   149 net.cpp:94] Creating Layer norm2
I0803 22:54:49.254587   149 net.cpp:435] norm2 <- conv2
I0803 22:54:49.254632   149 net.cpp:409] norm2 -> norm2
I0803 22:54:49.254701   149 net.cpp:144] Setting up norm2
I0803 22:54:49.254719   149 net.cpp:151] Top shape: 128 256 27 27 (23887872)
I0803 22:54:49.254734   149 net.cpp:159] Memory required for data: 847689728
I0803 22:54:49.254748   149 layer_factory.hpp:77] Creating layer pool2
I0803 22:54:49.254766   149 net.cpp:94] Creating Layer pool2
I0803 22:54:49.254778   149 net.cpp:435] pool2 <- norm2
I0803 22:54:49.254815   149 net.cpp:409] pool2 -> pool2
I0803 22:54:49.254853   149 net.cpp:144] Setting up pool2
I0803 22:54:49.254878   149 net.cpp:151] Top shape: 128 256 13 13 (5537792)
I0803 22:54:49.254886   149 net.cpp:159] Memory required for data: 869840896
I0803 22:54:49.254910   149 layer_factory.hpp:77] Creating layer conv3
I0803 22:54:49.254938   149 net.cpp:94] Creating Layer conv3
I0803 22:54:49.254946   149 net.cpp:435] conv3 <- pool2
I0803 22:54:49.254957   149 net.cpp:409] conv3 -> conv3
I0803 22:54:49.264168   149 net.cpp:144] Setting up conv3
I0803 22:54:49.264186   149 net.cpp:151] Top shape: 128 384 13 13 (8306688)
I0803 22:54:49.264194   149 net.cpp:159] Memory required for data: 903067648
I0803 22:54:49.264207   149 layer_factory.hpp:77] Creating layer relu3
I0803 22:54:49.264219   149 net.cpp:94] Creating Layer relu3
I0803 22:54:49.264237   149 net.cpp:435] relu3 <- conv3
I0803 22:54:49.264247   149 net.cpp:396] relu3 -> conv3 (in-place)
I0803 22:54:49.264258   149 net.cpp:144] Setting up relu3
I0803 22:54:49.264276   149 net.cpp:151] Top shape: 128 384 13 13 (8306688)
I0803 22:54:49.264283   149 net.cpp:159] Memory required for data: 936294400
I0803 22:54:49.264291   149 layer_factory.hpp:77] Creating layer conv4
I0803 22:54:49.264302   149 net.cpp:94] Creating Layer conv4
I0803 22:54:49.264310   149 net.cpp:435] conv4 <- conv3
I0803 22:54:49.264320   149 net.cpp:409] conv4 -> conv4
I0803 22:54:49.283318   149 net.cpp:144] Setting up conv4
I0803 22:54:49.283336   149 net.cpp:151] Top shape: 128 384 13 13 (8306688)
I0803 22:54:49.283344   149 net.cpp:159] Memory required for data: 969521152
I0803 22:54:49.283356   149 layer_factory.hpp:77] Creating layer relu4
I0803 22:54:49.283367   149 net.cpp:94] Creating Layer relu4
I0803 22:54:49.283375   149 net.cpp:435] relu4 <- conv4
I0803 22:54:49.283413   149 net.cpp:396] relu4 -> conv4 (in-place)
I0803 22:54:49.283427   149 net.cpp:144] Setting up relu4
I0803 22:54:49.283437   149 net.cpp:151] Top shape: 128 384 13 13 (8306688)
I0803 22:54:49.283443   149 net.cpp:159] Memory required for data: 1002747904
I0803 22:54:49.283452   149 layer_factory.hpp:77] Creating layer conv5
I0803 22:54:49.283463   149 net.cpp:94] Creating Layer conv5
I0803 22:54:49.283471   149 net.cpp:435] conv5 <- conv4
I0803 22:54:49.283483   149 net.cpp:409] conv5 -> conv5
I0803 22:54:49.288055   149 net.cpp:144] Setting up conv5
I0803 22:54:49.288072   149 net.cpp:151] Top shape: 128 256 13 13 (5537792)
I0803 22:54:49.288080   149 net.cpp:159] Memory required for data: 1024899072
I0803 22:54:49.288094   149 layer_factory.hpp:77] Creating layer relu5
I0803 22:54:49.288105   149 net.cpp:94] Creating Layer relu5
I0803 22:54:49.288113   149 net.cpp:435] relu5 <- conv5
I0803 22:54:49.288123   149 net.cpp:396] relu5 -> conv5 (in-place)
I0803 22:54:49.288136   149 net.cpp:144] Setting up relu5
I0803 22:54:49.288144   149 net.cpp:151] Top shape: 128 256 13 13 (5537792)
I0803 22:54:49.288152   149 net.cpp:159] Memory required for data: 1047050240
I0803 22:54:49.288159   149 layer_factory.hpp:77] Creating layer pool5
I0803 22:54:49.288169   149 net.cpp:94] Creating Layer pool5
I0803 22:54:49.288177   149 net.cpp:435] pool5 <- conv5
I0803 22:54:49.288187   149 net.cpp:409] pool5 -> pool5
I0803 22:54:49.288224   149 net.cpp:144] Setting up pool5
I0803 22:54:49.288235   149 net.cpp:151] Top shape: 128 256 6 6 (1179648)
I0803 22:54:49.288242   149 net.cpp:159] Memory required for data: 1051768832
I0803 22:54:49.288249   149 layer_factory.hpp:77] Creating layer fc6
I0803 22:54:49.288269   149 net.cpp:94] Creating Layer fc6
I0803 22:54:49.288277   149 net.cpp:435] fc6 <- pool5
I0803 22:54:49.288287   149 net.cpp:409] fc6 -> fc6
I0803 22:54:49.721928   149 net.cpp:144] Setting up fc6
I0803 22:54:49.721976   149 net.cpp:151] Top shape: 128 4096 (524288)
I0803 22:54:49.721985   149 net.cpp:159] Memory required for data: 1053865984
I0803 22:54:49.722003   149 layer_factory.hpp:77] Creating layer relu6
I0803 22:54:49.722019   149 net.cpp:94] Creating Layer relu6
I0803 22:54:49.722029   149 net.cpp:435] relu6 <- fc6
I0803 22:54:49.722043   149 net.cpp:396] relu6 -> fc6 (in-place)
I0803 22:54:49.722064   149 net.cpp:144] Setting up relu6
I0803 22:54:49.722074   149 net.cpp:151] Top shape: 128 4096 (524288)
I0803 22:54:49.722084   149 net.cpp:159] Memory required for data: 1055963136
I0803 22:54:49.722091   149 layer_factory.hpp:77] Creating layer drop6
I0803 22:54:49.722122   149 net.cpp:94] Creating Layer drop6
I0803 22:54:49.722131   149 net.cpp:435] drop6 <- fc6
I0803 22:54:49.722143   149 net.cpp:396] drop6 -> fc6 (in-place)
I0803 22:54:49.722177   149 net.cpp:144] Setting up drop6
I0803 22:54:49.722188   149 net.cpp:151] Top shape: 128 4096 (524288)
I0803 22:54:49.722196   149 net.cpp:159] Memory required for data: 1058060288
I0803 22:54:49.722205   149 layer_factory.hpp:77] Creating layer fc7
I0803 22:54:49.722219   149 net.cpp:94] Creating Layer fc7
I0803 22:54:49.722229   149 net.cpp:435] fc7 <- fc6
I0803 22:54:49.722256   149 net.cpp:409] fc7 -> fc7
I0803 22:54:49.919170   149 net.cpp:144] Setting up fc7
I0803 22:54:49.919222   149 net.cpp:151] Top shape: 128 4096 (524288)
I0803 22:54:49.919231   149 net.cpp:159] Memory required for data: 1060157440
I0803 22:54:49.919265   149 layer_factory.hpp:77] Creating layer relu7
I0803 22:54:49.919282   149 net.cpp:94] Creating Layer relu7
I0803 22:54:49.919299   149 net.cpp:435] relu7 <- fc7
I0803 22:54:49.919314   149 net.cpp:396] relu7 -> fc7 (in-place)
I0803 22:54:49.919337   149 net.cpp:144] Setting up relu7
I0803 22:54:49.919348   149 net.cpp:151] Top shape: 128 4096 (524288)
I0803 22:54:49.919355   149 net.cpp:159] Memory required for data: 1062254592
I0803 22:54:49.919364   149 layer_factory.hpp:77] Creating layer drop7
I0803 22:54:49.919378   149 net.cpp:94] Creating Layer drop7
I0803 22:54:49.919386   149 net.cpp:435] drop7 <- fc7
I0803 22:54:49.919438   149 net.cpp:396] drop7 -> fc7 (in-place)
I0803 22:54:49.919471   149 net.cpp:144] Setting up drop7
I0803 22:54:49.919482   149 net.cpp:151] Top shape: 128 4096 (524288)
I0803 22:54:49.919490   149 net.cpp:159] Memory required for data: 1064351744
I0803 22:54:49.919499   149 layer_factory.hpp:77] Creating layer fc8
I0803 22:54:49.919514   149 net.cpp:94] Creating Layer fc8
I0803 22:54:49.919523   149 net.cpp:435] fc8 <- fc7
I0803 22:54:49.919535   149 net.cpp:409] fc8 -> fc8
I0803 22:54:49.920661   149 net.cpp:144] Setting up fc8
I0803 22:54:49.920680   149 net.cpp:151] Top shape: 128 4 (512)
I0803 22:54:49.920687   149 net.cpp:159] Memory required for data: 1064353792
I0803 22:54:49.920699   149 layer_factory.hpp:77] Creating layer loss
I0803 22:54:49.920722   149 net.cpp:94] Creating Layer loss
I0803 22:54:49.920732   149 net.cpp:435] loss <- fc8
I0803 22:54:49.920742   149 net.cpp:435] loss <- label
I0803 22:54:49.920756   149 net.cpp:409] loss -> loss
I0803 22:54:49.920773   149 layer_factory.hpp:77] Creating layer loss
…
I0803 22:54:49.921593   149 solver.cpp:181] Creating test net (#0) specified by net file: train_val.prototxt
I0803 22:54:49.921639   149 net.cpp:323] The NetState phase (1) differed from the phase (0) specified by a rule in layer train-data
I0803 22:54:49.921792   149 net.cpp:52] Initializing net from parameters:
state {
phase: TEST
}
layer {
name: "val-data"
type: "Data"
top: "data"
top: "label"
include {
phase: TEST
}
transform_param {
crop_size: 227
mean_file: "/opt/DIGITS/digits/jobs/20180803-224823-72cb/mean.binaryproto"
}
data_param {
source: "/opt/DIGITS/digits/jobs/20180803-224823-72cb/val_db"
batch_size: 32
backend: LMDB
}
}
layer {
name: "conv1"
type: "Convolution"
bottom: "data"
top: "conv1"
param {
lr_mult: 1
decay_mult: 1
}
param {
lr_mult: 2
decay_mult: 0
}
convolution_param {
num_output: 96
kernel_size: 11
stride: 4
weight_filler {
type: "gaussian"
std: 0.01
}
bias_filler {
type: "constant"
value: 0
}
}
}
layer {
name: "relu1"
type: "ReLU"
bottom: "conv1"
top: "conv1"
}
layer {
name: "norm1"
type: "LRN"
bottom: "conv1"
top: "norm1"
lrn_param {
local_size: 5
alpha: 0.0001
beta: 0.75
}
}
layer {
name: "pool1"
type: "Pooling"
bottom: "norm1"
top: "pool1"
pooling_param {
pool: MAX
kernel_size: 3
stride: 2
}
}
layer {
name: "conv2"
type: "Convolution"
bottom: "pool1"
top: "conv2"
param {
lr_mult: 1
decay_mult: 1
}
param {
lr_mult: 2
decay_mult: 0
}
convolution_param {
num_output: 256
pad: 2
kernel_size: 5
group: 2
weight_filler {
type: "gaussian"
std: 0.01
}
bias_filler {
type: "constant"
value: 0.1
}
}
}
layer {
name: "relu2"
type: "ReLU"
bottom: "conv2"
top: "conv2"
}
layer {
name: "norm2"
type: "LRN"
bottom: "conv2"
top: "norm2"
lrn_param {
local_size: 5
alpha: 0.0001
beta: 0.75
}
}
layer {
name: "pool2"
type: "Pooling"
bottom: "norm2"
top: "pool2"
pooling_param {
pool: MAX
kernel_size: 3
stride: 2
}
}
layer {
name: "conv3"
type: "Convolution"
bottom: "pool2"
top: "conv3"
param {
lr_mult: 1
decay_mult: 1
}
param {
lr_mult: 2
decay_mult: 0
}
convolution_param {
num_output: 384
pad: 1
kernel_size: 3
weight_filler {
type: "gaussian"
std: 0.01
}
bias_filler {
type: "constant"
value: 0
}
}
}
layer {
name: "relu3"
type: "ReLU"
bottom: "conv3"
top: "conv3"
}
layer {
name: "conv4"
type: "Convolution"
bottom: "conv3"
top: "conv4"
param {
lr_mult: 1
decay_mult: 1
}
param {
lr_mult: 2
decay_mult: 0
}
convolution_param {
num_output: 384
pad: 1
kernel_size: 3
group: 2
weight_filler {
type: "gaussian"
std: 0.01
}
bias_filler {
type: "constant"
value: 0.1
}
}
}
layer {
name: "relu4"
type: "ReLU"
bottom: "conv4"
top: "conv4"
}
layer {
name: "conv5"
type: "Convolution"
bottom: "conv4"
top: "conv5"
param {
lr_mult: 1
decay_mult: 1
}
param {
lr_mult: 2
decay_mult: 0
}
convolution_param {
num_output: 256
pad: 1
kernel_size: 3
group: 2
weight_filler {
type: "gaussian"
std: 0.01
}
bias_filler {
type: "constant"
value: 0.1
}
}
}
layer {
name: "relu5"
type: "ReLU"
bottom: "conv5"
top: "conv5"
}
layer {
name: "pool5"
type: "Pooling"
bottom: "conv5"
top: "pool5"
pooling_param {
pool: MAX
kernel_size: 3
stride: 2
}
}
layer {
name: "fc6"
type: "InnerProduct"
bottom: "pool5"
top: "fc6"
param {
lr_mult: 1
decay_mult: 1
}
param {
lr_mult: 2
decay_mult: 0
}
inner_product_param {
num_output: 4096
weight_filler {
type: "gaussian"
std: 0.005
}
bias_filler {
type: "constant"
value: 0.1
}
}
}
layer {
name: "relu6"
type: "ReLU"
bottom: "fc6"
top: "fc6"
}
layer {
name: "drop6"
type: "Dropout"
bottom: "fc6"
top: "fc6"
dropout_param {
dropout_ratio: 0.5
}
}
layer {
name: "fc7"
type: "InnerProduct"
bottom: "fc6"
top: "fc7"
param {
lr_mult: 1
decay_mult: 1
}
param {
lr_mult: 2
decay_mult: 0
}
inner_product_param {
num_output: 4096
weight_filler {
type: "gaussian"
std: 0.005
}
bias_filler {
type: "constant"
value: 0.1
}
}
}
layer {
name: "relu7"
type: "ReLU"
bottom: "fc7"
top: "fc7"
}
layer {
name: "drop7"
type: "Dropout"
bottom: "fc7"
top: "fc7"
dropout_param {
dropout_ratio: 0.5
}
}
layer {
name: "fc8"
type: "InnerProduct"
bottom: "fc7"
top: "fc8"
param {
lr_mult: 1
decay_mult: 1
}
param {
lr_mult: 2
decay_mult: 0
}
inner_product_param {
num_output: 4
weight_filler {
type: "gaussian"
std: 0.01
}
bias_filler {
type: "constant"
value: 0
}
}
}
layer {
name: "accuracy"
type: "Accuracy"
bottom: "fc8"
bottom: "label"
top: "accuracy"
include {
phase: TEST
}
}
layer {
name: "loss"
type: "SoftmaxWithLoss"
bottom: "fc8"
bottom: "label"
top: "loss"
}
I0803 22:54:49.921921   149 layer_factory.hpp:77] Creating layer val-data
I0803 22:54:49.922410   149 net.cpp:94] Creating Layer val-data
I0803 22:54:49.922427   149 net.cpp:409] val-data -> data
I0803 22:54:49.922442   149 net.cpp:409] val-data -> label
I0803 22:54:49.922458   149 data_transformer.cpp:25] Loading mean file from: /opt/DIGITS/digits/jobs/20180803-224823-72cb/mean.binaryproto
I0803 22:54:49.923202   158 db_lmdb.cpp:35] Opened lmdb /opt/DIGITS/digits/jobs/20180803-224823-72cb/val_db
I0803 22:54:49.930173   149 data_layer.cpp:78] ReshapePrefetch 32, 3, 227, 227
I0803 22:54:49.930243   149 data_layer.cpp:83] output data size: 32,3,227,227
I0803 22:54:49.969048   149 net.cpp:144] Setting up val-data
I0803 22:54:49.969081   149 net.cpp:151] Top shape: 32 3 227 227 (4946784)
I0803 22:54:49.969092   149 net.cpp:151] Top shape: 32 (32)
I0803 22:54:49.969100   149 net.cpp:159] Memory required for data: 19787264
I0803 22:54:49.969112   149 layer_factory.hpp:77] Creating layer label_val-data_1_split
I0803 22:54:49.969135   149 net.cpp:94] Creating Layer label_val-data_1_split
I0803 22:54:49.969144   149 net.cpp:435] label_val-data_1_split <- label
I0803 22:54:49.969158   149 net.cpp:409] label_val-data_1_split -> label_val-data_1_split_0
I0803 22:54:49.969177   149 net.cpp:409] label_val-data_1_split -> label_val-data_1_split_1
I0803 22:54:49.969347   149 net.cpp:144] Setting up label_val-data_1_split
I0803 22:54:49.969360   149 net.cpp:151] Top shape: 32 (32)
I0803 22:54:49.969370   149 net.cpp:151] Top shape: 32 (32)
I0803 22:54:49.969378   149 net.cpp:159] Memory required for data: 19787520
I0803 22:54:49.969388   149 layer_factory.hpp:77] Creating layer conv1
I0803 22:54:49.969410   149 net.cpp:94] Creating Layer conv1
I0803 22:54:49.969419   149 net.cpp:435] conv1 <- data
I0803 22:54:49.969431   149 net.cpp:409] conv1 -> conv1
I0803 22:54:49.970772   149 net.cpp:144] Setting up conv1
I0803 22:54:49.970789   149 net.cpp:151] Top shape: 32 96 55 55 (9292800)
I0803 22:54:49.970798   149 net.cpp:159] Memory required for data: 56958720
I0803 22:54:49.970819   149 layer_factory.hpp:77] Creating layer relu1
I0803 22:54:49.970831   149 net.cpp:94] Creating Layer relu1
I0803 22:54:49.970839   149 net.cpp:435] relu1 <- conv1
I0803 22:54:49.970849   149 net.cpp:396] relu1 -> conv1 (in-place)
I0803 22:54:49.970865   149 net.cpp:144] Setting up relu1
I0803 22:54:49.970873   149 net.cpp:151] Top shape: 32 96 55 55 (9292800)
I0803 22:54:49.970881   149 net.cpp:159] Memory required for data: 94129920
I0803 22:54:49.970890   149 layer_factory.hpp:77] Creating layer norm1
I0803 22:54:49.970903   149 net.cpp:94] Creating Layer norm1
I0803 22:54:49.970911   149 net.cpp:435] norm1 <- conv1
I0803 22:54:49.970921   149 net.cpp:409] norm1 -> norm1
I0803 22:54:49.970971   149 net.cpp:144] Setting up norm1
I0803 22:54:49.970983   149 net.cpp:151] Top shape: 32 96 55 55 (9292800)
I0803 22:54:49.970991   149 net.cpp:159] Memory required for data: 131301120
I0803 22:54:49.970999   149 layer_factory.hpp:77] Creating layer pool1
I0803 22:54:49.971011   149 net.cpp:94] Creating Layer pool1
I0803 22:54:49.971019   149 net.cpp:435] pool1 <- norm1
I0803 22:54:49.971030   149 net.cpp:409] pool1 -> pool1
I0803 22:54:49.971071   149 net.cpp:144] Setting up pool1
I0803 22:54:49.971081   149 net.cpp:151] Top shape: 32 96 27 27 (2239488)
I0803 22:54:49.971088   149 net.cpp:159] Memory required for data: 140259072
I0803 22:54:49.971112   149 layer_factory.hpp:77] Creating layer conv2
I0803 22:54:49.971127   149 net.cpp:94] Creating Layer conv2
I0803 22:54:49.971135   149 net.cpp:435] conv2 <- pool1
I0803 22:54:49.971149   149 net.cpp:409] conv2 -> conv2
I0803 22:54:49.976148   149 net.cpp:144] Setting up conv2
I0803 22:54:49.976172   149 net.cpp:151] Top shape: 32 256 27 27 (5971968)
I0803 22:54:49.976182   149 net.cpp:159] Memory required for data: 164146944
I0803 22:54:49.976212   149 layer_factory.hpp:77] Creating layer relu2
I0803 22:54:49.976233   149 net.cpp:94] Creating Layer relu2
I0803 22:54:49.976243   149 net.cpp:435] relu2 <- conv2
I0803 22:54:49.976254   149 net.cpp:396] relu2 -> conv2 (in-place)
I0803 22:54:49.976292   149 net.cpp:144] Setting up relu2
I0803 22:54:49.976305   149 net.cpp:151] Top shape: 32 256 27 27 (5971968)
I0803 22:54:49.976313   149 net.cpp:159] Memory required for data: 188034816
I0803 22:54:49.976322   149 layer_factory.hpp:77] Creating layer norm2
I0803 22:54:49.976352   149 net.cpp:94] Creating Layer norm2
I0803 22:54:49.976361   149 net.cpp:435] norm2 <- conv2
I0803 22:54:49.976373   149 net.cpp:409] norm2 -> norm2
I0803 22:54:49.976434   149 net.cpp:144] Setting up norm2
I0803 22:54:49.976447   149 net.cpp:151] Top shape: 32 256 27 27 (5971968)
I0803 22:54:49.976456   149 net.cpp:159] Memory required for data: 211922688
I0803 22:54:49.976465   149 layer_factory.hpp:77] Creating layer pool2
I0803 22:54:49.976477   149 net.cpp:94] Creating Layer pool2
I0803 22:54:49.976486   149 net.cpp:435] pool2 <- norm2
I0803 22:54:49.976497   149 net.cpp:409] pool2 -> pool2
I0803 22:54:49.976538   149 net.cpp:144] Setting up pool2
I0803 22:54:49.976550   149 net.cpp:151] Top shape: 32 256 13 13 (1384448)
I0803 22:54:49.976558   149 net.cpp:159] Memory required for data: 217460480
I0803 22:54:49.976567   149 layer_factory.hpp:77] Creating layer conv3
I0803 22:54:49.976583   149 net.cpp:94] Creating Layer conv3
I0803 22:54:49.976591   149 net.cpp:435] conv3 <- pool2
I0803 22:54:49.976603   149 net.cpp:409] conv3 -> conv3
I0803 22:54:49.986573   149 net.cpp:144] Setting up conv3
I0803 22:54:49.986591   149 net.cpp:151] Top shape: 32 384 13 13 (2076672)
I0803 22:54:49.986615   149 net.cpp:159] Memory required for data: 225767168
I0803 22:54:49.986646   149 layer_factory.hpp:77] Creating layer relu3
I0803 22:54:49.986680   149 net.cpp:94] Creating Layer relu3
I0803 22:54:49.986690   149 net.cpp:435] relu3 <- conv3
I0803 22:54:49.986701   149 net.cpp:396] relu3 -> conv3 (in-place)
I0803 22:54:49.986713   149 net.cpp:144] Setting up relu3
I0803 22:54:49.986723   149 net.cpp:151] Top shape: 32 384 13 13 (2076672)
I0803 22:54:49.986732   149 net.cpp:159] Memory required for data: 234073856
I0803 22:54:49.986740   149 layer_factory.hpp:77] Creating layer conv4
I0803 22:54:49.986755   149 net.cpp:94] Creating Layer conv4
I0803 22:54:49.986780   149 net.cpp:435] conv4 <- conv3
I0803 22:54:49.986793   149 net.cpp:409] conv4 -> conv4
I0803 22:54:49.994338   149 net.cpp:144] Setting up conv4
I0803 22:54:49.994371   149 net.cpp:151] Top shape: 32 384 13 13 (2076672)
I0803 22:54:49.994380   149 net.cpp:159] Memory required for data: 242380544
I0803 22:54:49.994392   149 layer_factory.hpp:77] Creating layer relu4
I0803 22:54:49.994405   149 net.cpp:94] Creating Layer relu4
I0803 22:54:49.994415   149 net.cpp:435] relu4 <- conv4
I0803 22:54:49.994444   149 net.cpp:396] relu4 -> conv4 (in-place)
I0803 22:54:49.994472   149 net.cpp:144] Setting up relu4
I0803 22:54:49.994482   149 net.cpp:151] Top shape: 32 384 13 13 (2076672)
I0803 22:54:49.994490   149 net.cpp:159] Memory required for data: 250687232
I0803 22:54:49.994499   149 layer_factory.hpp:77] Creating layer conv5
I0803 22:54:49.994514   149 net.cpp:94] Creating Layer conv5
I0803 22:54:49.994524   149 net.cpp:435] conv5 <- conv4
I0803 22:54:49.994535   149 net.cpp:409] conv5 -> conv5
I0803 22:54:49.999547   149 net.cpp:144] Setting up conv5
I0803 22:54:49.999564   149 net.cpp:151] Top shape: 32 256 13 13 (1384448)
I0803 22:54:49.999573   149 net.cpp:159] Memory required for data: 256225024
I0803 22:54:49.999593   149 layer_factory.hpp:77] Creating layer relu5
I0803 22:54:49.999606   149 net.cpp:94] Creating Layer relu5
I0803 22:54:49.999615   149 net.cpp:435] relu5 <- conv5
I0803 22:54:49.999645   149 net.cpp:396] relu5 -> conv5 (in-place)
I0803 22:54:49.999660   149 net.cpp:144] Setting up relu5
I0803 22:54:49.999670   149 net.cpp:151] Top shape: 32 256 13 13 (1384448)
I0803 22:54:49.999680   149 net.cpp:159] Memory required for data: 261762816
I0803 22:54:49.999687   149 layer_factory.hpp:77] Creating layer pool5
I0803 22:54:49.999701   149 net.cpp:94] Creating Layer pool5
I0803 22:54:49.999711   149 net.cpp:435] pool5 <- conv5
I0803 22:54:49.999722   149 net.cpp:409] pool5 -> pool5
I0803 22:54:49.999769   149 net.cpp:144] Setting up pool5
I0803 22:54:49.999781   149 net.cpp:151] Top shape: 32 256 6 6 (294912)
I0803 22:54:49.999789   149 net.cpp:159] Memory required for data: 262942464
I0803 22:54:49.999799   149 layer_factory.hpp:77] Creating layer fc6
I0803 22:54:49.999812   149 net.cpp:94] Creating Layer fc6
I0803 22:54:49.999821   149 net.cpp:435] fc6 <- pool5
I0803 22:54:49.999838   149 net.cpp:409] fc6 -> fc6
I0803 22:54:50.446270   149 net.cpp:144] Setting up fc6
I0803 22:54:50.446331   149 net.cpp:151] Top shape: 32 4096 (131072)
I0803 22:54:50.446341   149 net.cpp:159] Memory required for data: 263466752
I0803 22:54:50.446369   149 layer_factory.hpp:77] Creating layer relu6
I0803 22:54:50.446386   149 net.cpp:94] Creating Layer relu6
I0803 22:54:50.446398   149 net.cpp:435] relu6 <- fc6
I0803 22:54:50.446413   149 net.cpp:396] relu6 -> fc6 (in-place)
I0803 22:54:50.446434   149 net.cpp:144] Setting up relu6
I0803 22:54:50.446444   149 net.cpp:151] Top shape: 32 4096 (131072)
I0803 22:54:50.446454   149 net.cpp:159] Memory required for data: 263991040
I0803 22:54:50.446462   149 layer_factory.hpp:77] Creating layer drop6
I0803 22:54:50.446485   149 net.cpp:94] Creating Layer drop6
I0803 22:54:50.446493   149 net.cpp:435] drop6 <- fc6
I0803 22:54:50.446504   149 net.cpp:396] drop6 -> fc6 (in-place)
I0803 22:54:50.446549   149 net.cpp:144] Setting up drop6
I0803 22:54:50.446569   149 net.cpp:151] Top shape: 32 4096 (131072)
I0803 22:54:50.446578   149 net.cpp:159] Memory required for data: 264515328
I0803 22:54:50.446601   149 layer_factory.hpp:77] Creating layer fc7
I0803 22:54:50.446632   149 net.cpp:94] Creating Layer fc7
I0803 22:54:50.446641   149 net.cpp:435] fc7 <- fc6
I0803 22:54:50.446655   149 net.cpp:409] fc7 -> fc7
I0803 22:54:50.638690   149 net.cpp:144] Setting up fc7
I0803 22:54:50.638741   149 net.cpp:151] Top shape: 32 4096 (131072)
I0803 22:54:50.638764   149 net.cpp:159] Memory required for data: 265039616
I0803 22:54:50.638798   149 layer_factory.hpp:77] Creating layer relu7
I0803 22:54:50.638829   149 net.cpp:94] Creating Layer relu7
I0803 22:54:50.638855   149 net.cpp:435] relu7 <- fc7
I0803 22:54:50.638870   149 net.cpp:396] relu7 -> fc7 (in-place)
I0803 22:54:50.638890   149 net.cpp:144] Setting up relu7
I0803 22:54:50.638900   149 net.cpp:151] Top shape: 32 4096 (131072)
I0803 22:54:50.638908   149 net.cpp:159] Memory required for data: 265563904
I0803 22:54:50.638932   149 layer_factory.hpp:77] Creating layer drop7
I0803 22:54:50.638959   149 net.cpp:94] Creating Layer drop7
I0803 22:54:50.638968   149 net.cpp:435] drop7 <- fc7
I0803 22:54:50.638979   149 net.cpp:396] drop7 -> fc7 (in-place)
I0803 22:54:50.639017   149 net.cpp:144] Setting up drop7
I0803 22:54:50.639062   149 net.cpp:151] Top shape: 32 4096 (131072)
I0803 22:54:50.639086   149 net.cpp:159] Memory required for data: 266088192
I0803 22:54:50.639096   149 layer_factory.hpp:77] Creating layer fc8
I0803 22:54:50.639109   149 net.cpp:94] Creating Layer fc8
I0803 22:54:50.639118   149 net.cpp:435] fc8 <- fc7
I0803 22:54:50.639144   149 net.cpp:409] fc8 -> fc8
I0803 22:54:50.639407   149 net.cpp:144] Setting up fc8
I0803 22:54:50.639422   149 net.cpp:151] Top shape: 32 4 (128)
I0803 22:54:50.639430   149 net.cpp:159] Memory required for data: 266088704
I0803 22:54:50.639441   149 layer_factory.hpp:77] Creating layer fc8_fc8_0_split
I0803 22:54:50.639453   149 net.cpp:94] Creating Layer fc8_fc8_0_split
I0803 22:54:50.639462   149 net.cpp:435] fc8_fc8_0_split <- fc8
I0803 22:54:50.639473   149 net.cpp:409] fc8_fc8_0_split -> fc8_fc8_0_split_0
I0803 22:54:50.639516   149 net.cpp:409] fc8_fc8_0_split -> fc8_fc8_0_split_1
I0803 22:54:50.639564   149 net.cpp:144] Setting up fc8_fc8_0_split
I0803 22:54:50.639591   149 net.cpp:151] Top shape: 32 4 (128)
I0803 22:54:50.639600   149 net.cpp:151] Top shape: 32 4 (128)
I0803 22:54:50.639608   149 net.cpp:159] Memory required for data: 266089728
I0803 22:54:50.639617   149 layer_factory.hpp:77] Creating layer accuracy
I0803 22:54:50.639631   149 net.cpp:94] Creating Layer accuracy
I0803 22:54:50.639639   149 net.cpp:435] accuracy <- fc8_fc8_0_split_0
I0803 22:54:50.639649   149 net.cpp:435] accuracy <- label_val-data_1_split_0
I0803 22:54:50.639662   149 net.cpp:409] accuracy -> accuracy
…
